EX4/nn_theta.npy (npy, 82360 bytes, 1 tensors)

array f8 [10285]
0	0xbfe18df886aca8fd	-0.548580420528452
1	0x3da2c12540000000	8.528547659758523e-12
2	0x3da278c800000000	8.400002915465166e-12
3	0x3e9be5cb11140000	4.157070786076078e-07
4	0xbe9e64333be40000	-4.528672511577847e-07
5	0xbf13234e77070000	-7.300535594989555e-05
6	0x3f11ce81a0286fc0	6.792703792551837e-05
7	0x3f42ec2d016bc4a0	0.0005774707559266408
8	0xbf6d387dfdee1a20	-0.0035669766215875726
9	0xbf651e3815c1d5e0	-0.0025778861436786954
10	0xbf6004047f770540	-0.0019550407266427927
11	0xbf3e7245bfecea00	-0.0004645748412489825
12	0xbf399275c0b8bec0	-0.0003901994211643438
13	0xbf536216ffe3c0b6	-0.001183054409519752
14	0xbf624908b5480560	-0.00223209095770531
15	0xbf26c2563e1f2900	-0.00017363837019807732
16	0x3f39042fa4d51600	0.0003817192380960177
17	0xbebfa6a06451c000	-1.8865397504418124e-06
18	0x3ec5e1984cd80000	2.60844590260767e-06
19	0xbe974270ce040000	-3.4659406190906683e-07
20	0x3de6d18d80000000	1.6602691443878825e-10
21	0x3e72a8ef70f80000	6.951355779188928e-08
22	0xbebeba8783e97000	-1.8315690934111659e-06
23	0xbec30c5f38ba4000	-2.2707376439792815e-06
24	0x3f164c6768406f00	8.506184718764728e-05
25	0x3f52a70884a77180	0.0011384566483832737
26	0xbf60c74cbb4f3560	-0.002048158518369078
27	0x3f80e65b6d2b40f8	0.0082518713656161
28	0x3fac7ddfd9aaf210	0.05564784557416058
29	0x3f9c81e986946344	0.027839325751389823
30	0x3f943b2d50a6854b	0.01975699238540089
31	0x3f7cc5fee9684d18	0.007024760960592923
32	0x3f77c095ba868b50	0.005798897626308655
33	0x3f89ef423337d3d0	0.012663380802203777
34	0x3f9c0dec6bd5c574	0.027396864015320557
35	0x3f76b3c9033a0e60	0.0055425502829425655
36	0xbf5982a24ec58180	-0.0015570244823593649
37	0x3f5bfdf91279aa80	0.0017085010857963712
38	0xbeff14375dd70000	-2.9639215304078093e-05
39	0xbf179e27839b1c00	-9.009472060049484e-05
40	0x3ef688f17ad90000	2.1490988436179137e-05
41	0x3ea578fb333c0000	6.399328413564387e-07
42	0x3f0815ce36447d00	4.593883093861363e-05
43	0xbf4473bcb3ba8a20	-0.0006241485020449002
44	0xbf675e4d6ff3c540	-0.0028525841186072542
45	0xbf61e9a27d246cb0	-0.0021866010294054536
46	0x3f92b6f922463aac	0.018276112286509757
47	0x3fab6465cab0a768	0.05350034808391407
48	0x3fbd552393df9e20	0.11458036766236335
49	0x3fb4b507c613ecfb	0.0808873041714157
50	0xbf9d6b82965e1e7c	-0.028730431010926413
51	0xbfadff21de9b2faa	-0.0585871299968795
52	0xbf77ac4e7d2933c4	-0.005779558751396633
53	0x3f9fe5a6573ccc14	0.03114948184447648
54	0x3f9316a7be9bc404	0.018641110428635713
55	0xbf9e4d66a5c7eb50	-0.02959213625761531
56	0xbf93dfa2eb6386dc	-0.019407792679777866
57	0xbf750c06f0fd0630	-0.0051384230753810795
58	0x3f61161bdc471be0	0.0020857376241312092
59	0xbf1b2320e70d9a00	-0.00010352028199420854
60	0xbf3046cff6205e00	-0.0002483613699282017
61	0xbef0ac4d4f998000	-1.590066401602197e-05
62	0xbf30070b6a7bea00	-0.0002445605154971775
63	0x3f74b8ce14f7e9f8	0.005059056289150814
64	0x3f8b5c8b09eb7374	0.013360105743623875
65	0xbf552141f8215340	-0.0012896675330200252
66	0x3fb6edbfc16b9bf5	0.08956526252914883
67	0x3fb67f50fdacd0b0	0.08788019364584687
68	0x3fc3bd7879ff26a2	0.15421968418950366
69	0x3fbf529b39db50db	0.12235422289387847
70	0x3faa37f4a6e554b4	0.05120815789511238
71	0xbfb527a36ad3670a	-0.08263608320285357
72	0xbfadba91d169c438	-0.058064038098458004
73	0xbf743d62f8794ca0	-0.004941355327520075
74	0xbfc084b47bc8f168	-0.12904983562647065
75	0xbfb67a91805af308	-0.08780774482415776
76	0xbfa73a1dfe06315a	-0.04536527372246964
77	0xbfa2e3815987273c	-0.03689197748060599
78	0x3f033e0a91c81000	3.670186763218841e-05
79	0x3f7bcf9e253225d0	0.006789796595634681
80	0xbf521796fe794c80	-0.0011042570639759053
81	0xbf2b8cca72d265e2	-0.00021018954558797628
82	0xbf4a25832d2379c0	-0.0007979288586986086
83	0x3f871888a0056730	0.011277263053375813
84	0x3fb547f82503df91	0.08312941459359836
85	0x3fbfbb84c1ef0ff9	0.12395505652153806
86	0x3fc21dad10bbe736	0.14153064076509175
87	0x3fc23652769304a0	0.14228277959594937
88	0x3fd488964a7466f7	0.3208366133782045
89	0x3fd511b36bf44af9	0.3292053751221569
90	0x3fc11f239e1cfa0e	0.13376279087420112
91	0xbfc6e514081f50ec	-0.17886591335866997
92	0xbfad41138e0fddb0	-0.05713711842684732
93	0xbfcc90a03d1a8568	-0.22316363318990828
94	0xbfe21101d74875e1	-0.5645760731455846
95	0xbfc36f9e7d6d55cc	-0.1518438446461644
96	0x3fa242a43fa89541	0.03566468503076204
97	0x3fc229e8bff25762	0.14190396664042298
98	0x3fba6ba4b13bfbdc	0.10320500685700956
99	0x3fab5355310cd822	0.05337015365368837
100	0x3f76f27d996fa2d4	0.005602350828646425
101	0x3f5f1c2dfb0f68ac	0.0018988083868323553
102	0x3f805eb3405b9025	0.007993126298465889
103	0xbf84beeb6a723e5f	-0.010129775224668678
104	0x3fa536ba38986f65	0.04143316212522911
105	0xbf6a3f042f7016b8	-0.0032038766617031554
106	0x3f7c94d37c374654	0.006977869142660593
107	0x3f81d523f1d0f5ff	0.008707314316889201
108	0x3fbe7efa6f1132c5	0.11912503444291207
109	0x3f8e9a1231e5cc54	0.014942304752116588
110	0xbfbee9d53f52fa1a	-0.12075550838469731
111	0xbfd1f4b39f3faa35	-0.28056040336256
112	0xbfdc5776794abf36	-0.4428383049480432
113	0xbfd6e1c95b52062e	-0.3575309173394058
114	0xbfd9727309a84356	-0.3976104349431372
115	0xbfc956c952350649	-0.19796101106662636
116	0x3fcb1a6367bfdb70	0.2117428070630143
117	0x3fcef2796205866d	0.2417747238751419
118	0x3fd0bd9cc2521e85	0.2615730188049173
119	0x3fc2feeecd40905a	0.14840493223266799
120	0x3fa0bea151aebbb0	0.032704392643942426
121	0x3f80cfa9ed004ed0	0.008208587212755886
122	0x3fa08e96f972bf7c	0.03233787341139213
123	0xbfb13a1d6f6a947e	-0.06729301424145892
124	0xbfbdeece7a806e44	-0.11692514887584432
125	0xbfb9266549dc0300	-0.0982421212502338
126	0x3fc08963ba0d6ac3	0.12919279656019542
127	0x3fd2d7a89b10d3a6	0.2944127573312535
128	0x3fccbe7f8d5028f8	0.2245635452275747
129	0x3fbe561307f6f882	0.11850089020205881
130	0xbfc30e76b23d3164	-0.14887889578893543
131	0xbfd98fec0f3f175f	-0.3994093083277814
132	0xbfdb825eb5a84a9b	-0.4298321508405622
133	0xbf947b2cbbf5fe74	-0.020001124355529545
134	0x3fb398e9062652f3	0.07655197525157202
135	0x3fb65aea76bba6da	0.08732476614718668
136	0x3fd837f8fede272d	0.37841629876548916
137	0x3fd01ca6c94e76dc	0.2517487493404198
138	0x3fb5183fe43c0d3b	0.08240126917012429
139	0x3fc15e3e47347760	0.1356885764770892
140	0x3f9c9896afe812d0	0.02792582939766214
141	0x3f7edba15317fdc0	0.0075336744062037275
142	0x3fac9ddfc64bf3c0	0.055891983944071466
143	0xbfac490bdea7aaea	-0.05524479954677537
144	0xbfbc68dff6b652fa	-0.11097526334044608
145	0xbf6db0b03e4d74c0	-0.00362429068120082
146	0x3fc7296f8a6ae088	0.18095201738993105
147	0x3fd1938fa1894db0	0.27463141226800314
148	0x3fcaa943f3d06507	0.20829057126028536
149	0x3fb32cd7a23c299e	0.07490298949065852
150	0xbfcc688f5d524a00	-0.22194091850958841
151	0xbfd33acaf98f581c	-0.3004634320362827
152	0xbfe0449a78aed4a5	-0.5083744389618415
153	0xbfaee46c17798c0c	-0.060336473336768476
154	0x3fce719eb7a2229e	0.23784240690681185
155	0x3fca1363d5e8a746	0.20371673531308881
156	0x3fcc73423e178856	0.22226741821129065
157	0x3fccf4147f694b24	0.2261987325788023
158	0x3fc26866aa8dc52d	0.14381106689283155
159	0x3fc8c211774d6d0f	0.19342249226870264
160	0x3f92dae034717b48	0.01841306991661476
161	0x3f7fb0dbbff14cc0	0.007737024686394978
162	0x3fa35db5e8382d5c	0.03782432994565951
163	0xbfbd1ed49d0c8210	-0.11375168642235445
164	0xbfbdeb91cc88a46a	-0.11687575572490663
165	0x3fcf19aaf552489a	0.24297081926903702
166	0x3fd38970cf9608de	0.30526371261670515
167	0x3fc8149b09ce2574	0.1881288335683099
168	0xbfb7e7fd5f60cc40	-0.09338363245551395
169	0x3f8d2f8a33dcf8d8	0.01425083132528153
170	0xbfd183be6cc5a68b	-0.2736660063006659
171	0xbfdf31a02624b7d4	-0.4874039051527437
172	0xbfdac438d9a7328b	-0.4182264447706891
173	0x3fa29b816c764aae	0.036342663278579365
174	0x3fcc672e0d051c08	0.2218988002370852
175	0x3fd3245d8dcbbba1	0.29909457061051553
176	0x3fd93bd33e936efc	0.3942764388173001
177	0x3fbdcdfa3d465818	0.11642421718565321
178	0x3fab691a8a0ba91f	0.05353625235678038
179	0x3fc74e469589fc4a	0.18207628537854453
180	0x3f890021495d4b3b	0.012207279254345607
181	0x3f7560b0b99e2f50	0.005219164211563612
182	0x3fabd3a7a1fc2764	0.054349173091465613
183	0x3f921902a97b1537	0.01767353209904351
184	0xbf98015f68d456e0	-0.023442736409456155
185	0x3fd452d73c6fd5b6	0.317556199093214
186	0x3fd97841b43534b0	0.39796488378926664
187	0x3fb9679d3314a73e	0.09923727509581412
188	0x3fc24c56e5e56b7e	0.1429546949901485
189	0x3fd973f4932f727c	0.3977023541790812
190	0xbfb1e15899b50376	-0.06984475853552205
191	0xbfccc9aa70510601	-0.2249043510837936
192	0xbfcb9162bcb4133a	-0.2153743192103777
193	0xbfbf9596d52e0890	-0.12337629990182308
194	0xbfb50ba7cc93979c	-0.08220909828705064
195	0x3fdacccf2491563a	0.418750558577219
196	0x3fdc49665f873c99	0.44197997406895123
197	0x3fc817da73164b97	0.18822794551359998
198	0xbfbba7b93bceb67e	-0.10802800855773317
199	0x3fbb6943c87a97e3	0.10707496304038915
200	0x3fa3e0be42192e10	0.03882402951111541
201	0xbf550f5aa1ab9140	-0.001285398967120946
202	0x3fca267ea4983a33	0.20429976498458444
203	0x3fd28aeb61fa34db	0.28972897117712443
204	0x3f97ecc6ba91757c	0.023364167344302342
205	0x3fc8f6b9305fc2e8	0.19502940046324757
206	0x3fdb2f8bfb4d0b6c	0.42477702656849803
207	0x3fc084530e6808c2	0.12903822139202786
208	0x3fb2ad0dbd972a92	0.07295308951067117
209	0x3fcf404b375dc820	0.2441495914786751
210	0x3fdd84663ef0ed84	0.4612060179385582
211	0x3fc463bab2f74486	0.15929349649971786
212	0xbfd49d57c6ba6009	-0.3221034470275304
213	0xbfd258436b3608c9	-0.286637167642891
214	0xbfd34eecc44b247a	-0.30169219178475937
215	0x3fd33d11f773d49c	0.3006024281051596
216	0x3fd8384b75212f70	0.3784359592289013
217	0x3fb8297d539f4484	0.09438308040195592
218	0xbfcc854ee16687a6	-0.22281824117550036
219	0x3fa439d2ae5a25a0	0.03950365427324276
220	0x3fb048298f6c439c	0.06360110999618346
221	0xbf71573bab89d8f0	-0.004233582578868175
222	0x3fc45bace3724cfa	0.1590477095202017
223	0x3fd123ba2507ba3a	0.26780561081151044
224	0x3fc725ea7807535b	0.18084460125705956
225	0x3fcfb7135fd859e6	0.24777452640473924
226	0x3fd5df5422808943	0.34175589913697396
227	0xbfb75c5ec8a326bd	-0.09125320814487288
228	0xbfc0427ba7bf1f9e	-0.12702890101195136
229	0x3f904cd793495fee	0.015918129315053813
230	0x3fdafb24ce76a699	0.421578599571697
231	0xbf8aa25c6278af34	-0.013004991297826153
232	0xbfcfa6e65c3a19f5	-0.24728087905187093
233	0xbfe01523934af233	-0.5025804402171786
234	0xbfd3bb6779191cbc	-0.3083132441137868
235	0x3fd3d2f29a96c722	0.30975022408084574
236	0x3fe10e10bfe68865	0.5329669712121016
237	0x3fc707089b78fc18	0.1799021491187609
238	0x3f94d8e33b63869d	0.020358610629847552
239	0x3fbbabc4f0e57331	0.10808974152810148
240	0x3fa56a68f7e23a10	0.04182746911930135
241	0xbf8590585174a916	-0.010529222474890559
242	0x3fc506acd2a1dfc4	0.1642662075498703
243	0x3fd2b041bf59a558	0.29200786291638314
244	0x3fc0a581ff4db6c3	0.1300508972739661
245	0x3fd1781b92d52eaa	0.27295579280028426
246	0x3fc2b220fc59b37a	0.14606106111332534
247	0xbfc4672e410f30f8	-0.1593988244698108
248	0x3fc199f7ef93b7d3	0.1375112457093893
249	0x3fd421978a78b184	0.31455029032328974
250	0x3fc2cace01333e4d	0.14681410845376988
251	0xbfa013ebed223a25	-0.03140198964785083
252	0xbfc1a955c07d22df	-0.13798019312732543
253	0xbfd2655c71868d9d	-0.2874365910194799
254	0xbf739202d6ba3600	-0.004777918900470635
255	0x3fb7eba990dd08c6	0.09343967234329673
