EX4/nn_theta2.npy (npy, 82360 bytes, 1 tensors)

array f8 [10285]
000000 4e 11 c5 7a 89 c0 ca bf 5f 90 41 c7 fc c1 71 be
       -0.20900076384180938 -6.61528234982243e-08
000010 d4 37 d3 54 7b d0 75 3e d4 fa 2a e3 b8 e9 d6 3e
       8.126490521066967e-08 5.462879516470165e-06
000020 1b 7c c2 98 c2 5b fb be 4a 88 4d 91 be 06 3a bf
       -2.6091039715067052e-05 -0.0003971305134681287
000030 0f b2 d3 56 f3 01 64 bf 31 ae ce 90 eb 70 64 bf
       -0.0024423363416785702 -0.002495250786940927
000040 70 be c4 32 04 63 62 3f 54 bc 2c 1e d3 e1 5f 3f
       0.002244480323632385 0.0019459306428861916
000050 34 20 cb f9 e4 9b 65 3f d3 8b f7 60 41 a6 42 3f
       0.0026378128226021372 0.0005691355926810089
000060 66 d1 8a 0a 33 de 42 3f c4 2d 13 28 65 18 5d 3f
       0.0005758046364321811 0.0017758357865201727
000070 a8 18 f7 dc bd a5 5b 3f f1 72 d3 73 d9 3d 41 3f
       0.0016874651081351475 0.0005261718539731603
000080 8c 52 df 4d 15 98 b8 3e 01 36 26 a7 15 4e b4 be
       1.4659211084916752e-06 -1.2102733789350194e-06
000090 3b c3 31 01 b4 59 6a 3e 68 ab d2 24 1d 08 4c 3e
       4.908145014796808e-08 1.3053275039279998e-08
0000a0 0d e9 42 0f ab d2 8a 3e d1 0b 01 8e 83 e5 62 3e
       1.9984634714259312e-07 3.519754598936126e-08
0000b0 c1 3b 1a cd 7c 86 c4 3e ab ec 19 5b 9e 76 17 bf
       2.4468114155416336e-06 -8.950559165470338e-05
0000c0 ab e2 74 58 b7 52 42 3f 6a bc 2a 69 6a 28 44 3f
       0.0005591769449103298 0.0006151694854760307
0000d0 c0 da 32 c0 54 2c 61 bf 98 f2 78 dd ad 48 7b bf
       -0.0020963340080827064 -0.006661109123851226
0000e0 33 3a 1d 66 27 48 9e bf c1 9c 43 73 61 41 93 bf
       -0.0295721202922385 -0.018804094944155695
0000f0 df 93 87 13 84 58 9a bf 5c c5 2c 27 ca fe 70 bf
       -0.025728286449424927 -0.004149236355077104
000100 07 27 48 db 21 d1 76 bf 03 30 51 38 50 1a 92 bf
       -0.0055705378076795825 -0.01767850249989068
000110 95 40 69 76 19 35 8f bf 11 08 f3 55 ef ad 65 bf
       -0.015237997938271778 -0.002646415188423575
000120 18 a0 5a 7d 03 35 58 3f aa 70 e4 e1 27 12 5b 3f
       0.0014774831846953215 0.0016522778965457987
000130 9e 66 76 e1 81 9f 62 3f f5 67 53 c1 d2 eb 43 3f
       0.0022733246548341654 0.000607946307947359
000140 14 d3 92 e6 f8 a1 13 bf 17 11 e0 60 2e 87 8d 3e
       -7.489282292534274e-05 2.2000112703824327e-07
000150 6f 54 93 f8 d1 3b f8 be 12 44 dd 7c 7f 77 25 3f
       -2.311103120152365e-05 0.00016377860304797647
000160 81 52 86 dd da d7 53 3f 67 07 f3 4c 86 17 51 3f
       0.001211131797480253 0.0010432063607343724
000170 f2 90 98 fd 88 20 81 bf 8a 63 06 48 76 5e 9a bf
       -0.008362837065825055 -0.02575096907239386
000180 7b 48 a0 5b 15 38 b6 bf d5 dc 59 31 61 91 bc bf
       -0.08679326521840551 -0.11159331755503683
000190 2a ad 22 6c 22 50 a7 bf e7 8f 97 fb 48 ed 79 bf
       -0.04553325243008495 -0.006329808320035802
0001a0 0e b5 58 61 04 0c 8f bf c2 66 7e 15 94 14 af bf
       -0.015159639569072538 -0.06070387613654084
0001b0 d1 eb 22 a2 a2 7a b5 bf 1a 82 83 5b f5 83 a6 bf
       -0.0839025159684035 -0.04397551290617603
0001c0 41 fb 5f af 49 85 91 bf 09 94 a5 49 c1 07 a6 bf
       -0.017110015229259593 -0.043027916183554345
0001d0 29 5a 75 83 0a 2d a4 bf da 32 4b 7b 72 38 66 bf
       -0.03940613608090288 -0.0027124629944864477
0001e0 f2 c7 3b 31 55 3b 5a 3f 90 9b dc 74 23 31 9f be
       0.0016010601001963357 -4.6479623426676104e-07
0001f0 0e ab 36 06 de c0 10 bf 2e d3 bc 1b 25 ed 48 3f
       -6.390910271273869e-05 0.0007606917565455612
000200 ea b3 8d eb eb 0c 55 3f 26 f0 55 9d d0 24 7c bf
       0.0012848190219429908 -0.00687104692530841
000210 d3 85 98 d4 d7 b1 b4 bf 47 dd 2b fe 18 e1 b9 bf
       -0.0808386701615043 -0.101090967229415
000220 fd 54 47 3c c7 90 c0 bf 90 e2 5f 1b 5b b0 c0 bf
       -0.12941828196804997 -0.1303819545426177
000230 ef 1b 63 07 18 ba b0 bf 22 f2 3e 4c 66 51 96 bf
       -0.06533956699705333 -0.021794889835051852
000240 4f 97 0d e0 fa 32 a8 bf ca ea ec 04 aa 89 b3 bf
       -0.04726394639037201 -0.07631933803797178
000250 97 4c 91 dc fc d3 c3 bf b8 10 21 94 58 5d d1 bf
       -0.15490685243512267 -0.27132238832224287
000260 e4 41 56 c6 fa b9 c2 bf 40 92 84 b9 72 a5 b0 bf
       -0.14630064663334885 -0.06502453831905886
000270 13 1e c6 a9 b4 3e b7 bf a0 54 e6 98 a0 7e a3 bf
       -0.09080056328650014 -0.038075464882390664
000280 b9 e6 fb 67 21 c7 6a bf 5d f7 d0 a7 ad ef 9c be
       -0.003268780943355445 -4.311836290826982e-07
000290 82 bf 44 8a 80 f1 fc 3e f8 4b 88 89 67 1d 3a 3f
       2.7602546326110495e-05 0.00039848115696478016
0002a0 30 ed aa 67 7f 25 44 3f 23 88 da e7 f1 2c b1 bf
       0.0006148216337672815 -0.06709205542077305
0002b0 4b 10 26 d5 91 31 ca bf af 4e 74 d7 e0 d9 d1 bf
       -0.20463774593020143 -0.278923235325446
0002c0 4e 7e c9 ae 28 a5 cc bf 43 50 ae 01 b0 16 b1 bf
       -0.22379025015378534 -0.06675243416822334
0002d0 ad 17 79 b1 bd d9 a1 bf f1 f0 74 98 77 49 b0 bf
       -0.034864356912790974 -0.06362102005090599
0002e0 06 c9 09 f3 d0 e3 ca bf bb ac e8 46 9d 6d c3 bf
       -0.21007739894009364 -0.15178266489360745
0002f0 80 54 14 29 23 d5 99 3f f7 69 2b c6 a9 84 d4 bf
       0.02522711694935653 -0.3205971179246769
000300 a6 02 c1 e2 88 ac c9 bf 19 55 70 9b 5a d9 99 3f
       -0.2005778414914136 0.025243201958876946
000310 d4 33 fd 67 25 0a a0 bf 85 1a 30 30 65 2c a0 bf
       -0.03132740873716214 -0.031588709003746586
000320 a7 97 2e 3c 95 cd 80 bf 4d 47 99 2d 09 af a3 3e
       -0.008204618357762273 5.866209804117237e-07
000330 a1 89 8a 15 ae b8 3f 3f 34 ae 2e 7b 57 5a 6f bf
       0.00048403024769974086 -0.00382725797813579
000340 f0 c3 2c 18 3a 98 9e bf bd 32 18 08 35 64 c6 bf
       -0.029877574658886574 -0.17493307967415275
000350 0a 9a b1 84 29 80 d3 bf 0a fc 37 70 c4 89 db bf
       -0.3046973987424343 -0.4302836509595528
000360 94 76 64 e4 e4 08 d1 bf 46 94 11 57 65 24 9c bf
       -0.26616785339306515 -0.027482589186906624
000370 4b 2b 50 3f 10 bb 99 3f c2 dd c4 c5 83 69 d5 bf
       0.02512765299256196 -0.3345651084268547
000380 6f a6 79 2f 6a 20 e2 bf d4 57 cb bb 4c e4 d4 bf
       -0.5664568831682127 -0.326434310334091
000390 74 10 15 ff 77 09 c4 bf 2a 7f dd f1 2d 90 a1 bf
       -0.1565389628905255 -0.03430312707382506
0003a0 1d 96 b3 d1 99 24 a0 bf e1 78 92 18 4d c3 9f 3f
       -0.03152924237091901 0.031018452286496582
0003b0 7f 81 71 20 16 3d cb bf ef ab d5 ef ad e8 be bf
       -0.21280170997762224 -0.12073790650690318
0003c0 6d 5d bb d7 ac 11 9a bf 45 87 7d c9 a0 0f fb 3e
       -0.02545805041048992 2.580742565728231e-05
0003d0 84 f5 d3 fe 35 04 56 3f d2 8c a3 bf 23 20 93 bf
       0.001343777398971597 -0.018677290507992002
0003e0 fb 23 57 6e a4 43 c0 bf a9 3b b7 2a c2 82 d3 bf
       -0.12706427943911067 -0.3048558632989918
0003f0 79 90 87 c7 b9 1e db bf 99 b2 8e 24 89 ac da bf
       -0.42375034795100636 -0.4167807442670806
000400 5d 88 9b 16 36 ac bc bf fd 49 fa 5b 2f 2e bb 3f
       -0.11200273563329817 0.10617347713040455
000410 b4 ae 14 85 d1 09 c2 3f 40 13 78 5a 14 b0 b2 bf
       0.14092463491521345 -0.07299926003186119
000420 70 e2 cd fd 80 ad d0 bf 4e 8d d8 09 03 83 dc bf
       -0.2605898359829899 -0.44549632989420196
000430 47 f3 86 07 f2 ab d6 bf 47 ce d1 df 1c 2d c0 bf
       -0.35424471602509694 -0.12637673309983397
000440 cf a9 2d aa 84 2a c6 bf c3 67 43 23 dc f1 a8 bf
       -0.17317255315295063 -0.0487202446981452
000450 6c 59 da 15 c8 81 c1 bf 48 f2 61 39 a0 80 c2 bf
       -0.13677311961209726 -0.14455035020718499
000460 7e a2 aa c6 84 1d 83 bf 73 3a d8 1a 82 11 1f bf
       -0.00933364611894771 -0.00011851650807435405
000470 e5 c6 a1 3c 3b 29 6e 3f ff 25 93 77 30 2e a6 bf
       0.0036817700357055665 -0.04332114658025076
000480 71 d5 00 ba 01 13 ce bf 54 86 87 c3 0e a0 de bf
       -0.23495503980818058 -0.47851914496104553
000490 e7 11 b3 58 bf 90 e1 bf 13 99 35 be e4 92 da bf
       -0.5489193661128952 -0.4152156693948125
0004a0 50 e8 8f ef 7f f5 c9 bf 54 34 f4 72 1c 1b bb 3f
       -0.20280455777521178 0.1058824329995372
0004b0 8d 67 bb 16 02 79 dc 3f 91 97 7d 3d 79 e8 e2 3f
       0.4448857519142784 0.5908781243312992
0004c0 7f fa d5 06 de 2d bd 3f 04 54 4b b5 5f 14 d0 bf
       0.11398112933054881 -0.251243521733443
0004d0 b0 87 a4 59 4a d7 75 bf 83 5f 51 4a 5e 5a 9c 3f
       -0.005332270078982335 0.02768847778892748
0004e0 44 c7 61 35 9b 54 80 3f 5a 6d 6c 8f c1 75 bd bf
       0.007973873678767902 -0.11507806541015012
0004f0 03 bd 3e 86 d7 de be bf ca f8 5a f7 f0 7d b7 bf
       -0.12058779742686813 -0.09176546133946598
000500 ff d7 52 e9 d1 f7 57 3f cc ed 80 b6 75 ab 55 3f
       0.001462893478032523 0.0013226174869619299
000510 c3 94 f9 3e 2e 69 86 bf 0a 9a 72 a3 71 2c bd bf
       -0.010942803665964345 -0.11395941009923419
000520 7f 19 34 d3 01 7d d0 bf 2a 94 38 25 e7 bc e2 bf
       -0.25762982964842956 -0.5855594374630801
000530 2a 35 37 c3 16 4d e3 bf d2 1b 1d ad d6 f4 b8 bf
       -0.6031602680974733 -0.09748594023140747
000540 62 09 ce c5 79 06 a1 3f e4 75 67 85 f3 45 c7 3f
       0.03325253047570943 0.18182224286913062
000550 4b 58 f3 78 f2 8f da 3f ef 1c 84 e4 c4 55 d6 3f
       0.4150358372838851 0.3489849311449253
000560 8b ab 79 b7 75 32 c6 bf a0 18 c0 a9 e4 f1 51 bf
       -0.17341491183045962 -0.0010952694929087584
000570 15 7d d1 3d 10 f0 bd 3f eb 7f 03 10 42 8e b8 3f
       0.11694432744251444 0.09592068568190341
000580 99 d5 1d 65 a0 30 9e bf 1e 4b df 21 0b 28 cf bf
       -0.029482370540298317 -0.24340953020017592
000590 35 6b c9 64 3b f3 c8 bf ff df a5 cd 81 8d 86 bf
       -0.19492285176496585 -0.011012090767266612
0005a0 3d 9b 7f f9 26 72 81 bf 0b 6a 84 20 ee f8 67 3f
       -0.00851850937756426 0.0029263163488739744
0005b0 03 af ab 0f 95 56 98 bf 2d 89 68 fb 8e a1 c8 bf
       -0.023767785150012887 -0.19243037486837392
0005c0 38 bc 71 6d ad 33 d8 bf 24 b8 92 9d 6b 2a e4 bf
       -0.37815414131086156 -0.6301782682037396
0005d0 03 74 fb c2 25 e8 c7 bf c4 8a f1 7a 01 15 d1 3f
       -0.18677207966439377 0.2669070911999081
0005e0 4b d4 4a 38 6d d5 cf 3f e0 17 76 34 ec b3 d1 3f
       0.24870076416633177 0.27660660861181263
0005f0 23 f5 32 1c 66 30 d8 3f a2 c4 f3 97 93 5f d5 3f
       0.377954032457483 0.33395852889140987
000600 99 29 91 a4 9a 5e b5 3f ab 96 58 f3 c3 87 d0 3f
       0.08347479360342049 0.2582864643503437
000610 63 59 7f 57 b6 4b d1 3f ac f6 b5 c9 98 8a b9 3f
       0.27024611038850405 0.09977106976108513
000620 d0 01 91 63 46 68 c7 bf 31 28 ef 6d a8 f2 bb bf
       -0.18286971913950234 -0.10917141612949945
000630 48 56 47 be 80 0d b7 bf 5c 44 5a 04 ed 08 b8 3f
       -0.0900497879550467 0.09388619762673173
000640 0a b3 21 16 35 82 88 bf bd a7 34 aa d7 92 58 bf
       -0.011967100847152707 -0.0014998537161070434
000650 b3 2f 5f 9a 82 22 8e 3f 14 4c f0 7b 8d 72 c0 bf
       0.014714260421804548 -0.12849587012951302
000660 0b 3a 33 6d 29 9a db bf 3a 58 b8 f4 8b d3 e0 bf
       -0.43128429092476556 -0.5258235721291904
000670 f8 f2 4a be 8a 5c b0 3f 92 c2 eb 40 a8 fe d0 3f
       0.0639120783407171 0.26554304447112387
000680 ac 5d 3c c6 0e 84 d5 3f 88 ae 81 11 a4 9c c5 3f
       0.3361851631065871 0.16884280066311796
000690 e1 e7 d3 34 d5 72 d8 3f db 3a 97 0d 56 12 c7 3f
       0.38200884016953124 0.1802470747338337
0006a0 c6 1f 90 c5 b9 e5 b9 3f e5 8c ae b1 07 cf c6 3f
       0.10116158555331287 0.17819305587645498
0006b0 2e db 45 a2 9e d0 d9 3f 20 bd 54 cd 9b e4 92 bf
       0.4033581337638904 -0.0184501976083854
0006c0 8c 37 57 6d 2e fa c3 bf 20 8f 2a 11 12 08 c1 bf
       -0.15607242907429641 -0.13305879438586832
0006d0 f7 f2 66 6c 29 9b ca bf 86 b5 ea 78 6c 19 c6 3f
       -0.2078601626689289 0.17265087036268428
0006e0 59 2f 29 c8 15 a1 a4 3f c8 ee 77 01 b0 c8 8f bf
       0.040291481670094505 -0.015519499821486163
0006f0 a2 e2 84 b0 8b 00 8f bf 2a 5c e3 17 39 2a a3 bf
       -0.01513775951808444 -0.037431511083632366
000700 09 cb 45 65 81 14 d0 bf fb a5 df a2 61 e8 d4 bf
       -0.25125155343919 -0.32668343454005794
000710 dd b3 30 fc 1d 21 65 3f 1e 2d df 18 5a 2a c4 3f
       0.0025792680403555605 0.15754247869913568
000720 a7 39 19 3a 87 e8 c0 3f 66 99 e9 4d d2 92 93 3f
       0.1320961984333284 0.01911476707973616
000730 3f b7 fa d7 d5 33 93 3f 6b 46 8a 17 ab 58 b3 3f
       0.018752423579534435 0.07557172131262184
000740 4c ad b9 94 94 4f 87 3f e1 4c 70 b6 12 8a b6 bf
       0.011382256306396464 -0.08804432825154464
000750 eb 5c f5 ea ab 6c a1 bf c5 57 54 26 9a 15 ad bf
       -0.03403222315926676 -0.05680543630494087
000760 88 5d a2 c1 a4 80 a4 bf d0 21 5e e7 a0 a1 bb bf
       -0.04004397262286391 -0.10793500565171787
000770 18 12 00 45 b1 55 b1 bf a4 82 4f af 64 15 b7 3f
       -0.06771381315781644 0.09017018585246689
000780 58 d1 e1 4e ee 71 a1 3f 5b 2c 8d c4 d8 52 73 bf
       0.03407234871784465 -0.004717680691849936
000790 63 d7 1a e5 d9 e4 33 bf 60 cc 5c 49 95 61 ba bf
       -0.0003035575838156083 -0.10305150071217062
0007a0 2d 0e 2c aa 44 b9 d3 bf 54 dc 03 67 82 c8 ca bf
       -0.3081828748547391 -0.2092440608027767
0007b0 9b 08 10 a8 9e 00 a5 3f 7b b9 63 7e 9f af bb 3f
       0.04102035333200257 0.10814854465181682
0007c0 36 22 f6 8e da 9a c7 bf 2e 45 bd 6e 8a 90 b0 bf
       -0.18441326122798934 -0.06470551684949008
0007d0 72 c6 af 19 71 9e 97 bf 8b 9f 05 69 7e 6d b6 3f
       -0.023065344994341826 0.08760824264538607
0007e0 6a c0 5f 26 7c f3 c1 3f 91 d4 de 26 42 09 ad 3f
       0.1402430713055794 0.05671126102917257
0007f0 6a 31 63 7b 6c 90 c8 bf ed b9 94 b9 66 ca ba bf
       -0.19190746331004088 -0.10465089827332692
